project/python/backup/var0.pth (torch, 38852 bytes, 7 tensors)

fc1.weight f4 [80, 99]
000000 00 00 00 00 00 00 00 80 00 00 00 00 00 00 00 00
       0.0 -0.0 0.0 0.0
000010 00 00 00 00 00 00 00 00 00 00 00 00 00 00 00 80
       0.0 0.0 0.0 -0.0
000020 00 00 00 00 00 00 00 80 00 00 00 00 00 00 00 00
       0.0 -0.0 0.0 0.0
000030 00 00 00 80 00 00 00 00 00 00 00 00 00 00 00 80
       -0.0 0.0 0.0 -0.0
000040 00 00 00 00 00 00 00 00 00 00 00 00 00 00 00 00
       0.0 0.0 0.0 0.0
000050 00 00 00 00 00 00 00 00 00 00 00 00 00 00 00 00
       0.0 0.0 0.0 0.0
000060 00 00 00 00 00 00 00 00 40 e8 0b 41 a0 55 bb 40
       0.0 0.0 8.744202 5.8542023
000070 00 00 00 00 00 00 00 00 00 00 00 00 00 00 00 00
       0.0 0.0 0.0 0.0
000080 00 00 00 00 00 00 00 00 00 00 00 00 00 00 00 00
       0.0 0.0 0.0 0.0
000090 00 00 00 00 00 00 00 00 00 00 00 00 00 00 00 00
       0.0 0.0 0.0 0.0
0000a0 23 21 90 41 00 00 00 00 00 00 00 00 00 00 00 00
       18.01618 0.0 0.0 0.0
0000b0 00 00 00 00 00 00 00 00 00 00 00 00 00 00 00 00
       0.0 0.0 0.0 0.0
0000c0 00 00 00 00 00 00 00 00 00 00 00 00 9f 55 47 c1
       0.0 0.0 0.0 -12.458404
0000d0 32 db 23 41 00 00 00 00 00 00 00 00 00 00 00 00
       10.2410145 0.0 0.0 0.0
0000e0 00 00 00 00 00 00 00 00 00 00 00 00 00 00 00 00
       0.0 0.0 0.0 0.0
0000f0 00 00 00 00 00 00 00 00 62 f4 43 40 00 00 00 00
       0.0 0.0 3.061791 0.0
000100 00 00 00 00 00 00 00 00 00 00 00 00 00 00 00 00
       0.0 0.0 0.0 0.0
000110 64 3b b3 c0 00 00 00 00 00 00 00 00 00 00 00 00
       -5.601 0.0 0.0 0.0
000120 00 00 00 00 00 00 00 00 00 00 00 00 00 00 00 00
       0.0 0.0 0.0 0.0
000130 00 00 00 00 00 00 00 00 00 00 00 00 00 00 00 00
       0.0 0.0 0.0 0.0
000140 45 b2 96 41 00 00 00 00 00 00 00 00 00 00 00 00
       18.837046 0.0 0.0 0.0
000150 00 00 00 00 00 00 00 00 00 00 00 00 00 00 00 00
       0.0 0.0 0.0 0.0
000160 a8 a6 52 41 05 20 10 41 52 30 8c 41 00 00 00 00
       13.165688 9.007817 17.523594 0.0
000170 97 cb 22 41 00 00 00 00 00 00 00 00 00 00 00 00
       10.174705 0.0 0.0 0.0
000180 00 00 00 00 00 00 00 00 00 00 00 00 00 00 00 00
       0.0 0.0 0.0 0.0
000190 00 00 00 80 00 00 00 00 00 00 00 00 00 00 00 00
       -0.0 0.0 0.0 0.0
0001a0 00 00 00 00 00 00 00 00 00 00 00 80 00 00 00 00
       0.0 0.0 -0.0 0.0
0001b0 00 00 00 80 00 00 00 00 00 00 00 00 00 00 00 80
       -0.0 0.0 0.0 -0.0
0001c0 00 00 00 00 00 00 00 00 00 00 00 80 00 00 00 00
       0.0 0.0 -0.0 0.0
0001d0 00 00 00 00 00 00 00 00 64 4c 34 41 00 00 00 00
       0.0 0.0 11.26865 0.0
0001e0 00 00 00 00 00 00 00 00 00 00 00 00 00 00 00 00
       0.0 0.0 0.0 0.0
0001f0 00 00 00 00 68 9b 1b 41 00 00 00 00 00 00 00 00
       0.0 9.725441 0.0 0.0
000200 00 00 00 00 00 00 00 00 dd ad 6d 41 00 00 00 00
       0.0 0.0 14.854947 0.0
000210 00 00 00 00 00 00 00 00 00 00 00 00 00 00 00 00
       0.0 0.0 0.0 0.0
000220 37 ea a9 40 00 00 00 00 00 00 00 00 00 00 00 00
       5.3098407 0.0 0.0 0.0
000230 a9 38 58 41 00 00 00 00 00 00 00 00 00 00 00 00
       13.513833 0.0 0.0 0.0
000240 a9 f2 96 40 00 00 00 00 00 00 00 00 00 00 00 00
       4.7171216 0.0 0.0 0.0
000250 95 b8 8f 40 7d c5 06 c1 00 00 00 00 00 00 00 00
       4.491282 -8.423215 0.0 0.0
000260 00 00 00 00 a6 17 5b 41 b0 93 59 41 00 00 00 00
       0.0 13.693274 13.5985565 0.0
000270 00 00 00 00 00 00 00 00 00 00 00 00 00 00 00 00
       0.0 0.0 0.0 0.0
000280 00 00 00 00 00 00 00 00 00 00 00 00 00 00 00 00
       0.0 0.0 0.0 0.0
000290 00 00 00 00 00 00 00 00 00 00 00 00 00 00 00 00
       0.0 0.0 0.0 0.0
0002a0 00 00 00 00 00 00 00 00 dc 00 07 41 00 00 00 00
       0.0 0.0 8.43771 0.0
0002b0 00 00 00 00 00 00 00 00 00 00 00 00 00 00 00 00
       0.0 0.0 0.0 0.0
0002c0 c8 cc ef 40 00 00 00 00 00 00 00 00 00 00 00 00
       7.4937477 0.0 0.0 0.0
0002d0 00 00 00 00 00 00 00 00 00 00 00 00 00 00 00 00
       0.0 0.0 0.0 0.0
0002e0 a4 7b 67 40 00 00 00 00 00 00 00 00 00 00 00 00
       3.6169214 0.0 0.0 0.0
0002f0 00 00 00 00 00 00 00 00 00 00 00 00 00 00 00 00
       0.0 0.0 0.0 0.0
000300 00 00 00 00 00 00 00 00 00 00 00 00 00 00 00 00
       0.0 0.0 0.0 0.0
000310 00 00 00 00 00 00 00 00 00 00 00 00 00 00 00 80
       0.0 0.0 0.0 -0.0
000320 00 00 00 00 00 00 00 00 00 00 00 00 00 00 00 00
       0.0 0.0 0.0 0.0
000330 00 00 00 00 00 00 00 80 00 00 00 00 00 00 00 80
       0.0 -0.0 0.0 -0.0
000340 00 00 00 00 00 00 00 00 00 00 00 80 00 00 00 00
       0.0 0.0 -0.0 0.0
000350 00 00 00 00 00 00 00 80 00 00 00 00 00 00 00 00
       0.0 -0.0 0.0 0.0
000360 00 00 00 00 07 c6 90 41 23 05 7e 41 00 00 00 00
       0.0 18.096693 15.876254 0.0
000370 62 08 56 41 00 00 00 00 00 00 00 00 00 00 00 00
       13.377047 0.0 0.0 0.0
000380 00 00 00 00 00 00 00 00 00 00 00 00 00 00 00 00
       0.0 0.0 0.0 0.0
000390 00 00 00 00 00 00 00 00 00 00 00 00 7e a8 66 41
       0.0 0.0 0.0 14.416136
0003a0 00 00 00 00 00 00 00 00 00 00 00 00 00 00 00 00
       0.0 0.0 0.0 0.0
0003b0 00 00 00 00 2e 29 59 40 00 00 00 00 00 00 00 00
       0.0 3.3931384 0.0 0.0
0003c0 00 00 00 00 00 00 00 00 00 00 00 00 00 00 00 00
       0.0 0.0 0.0 0.0
0003d0 00 00 00 00 00 00 00 00 00 00 00 00 00 00 00 00
       0.0 0.0 0.0 0.0
0003e0 00 00 00 00 00 00 00 00 00 00 00 00 00 00 00 00
       0.0 0.0 0.0 0.0
0003f0 00 00 00 00 00 00 00 00 00 00 00 00 00 00 00 00
       0.0 0.0 0.0 0.0

lsm.threshold f4 [80]
000000 b7 aa 13 43 3a b0 92 42 02 f6 6b 41 c2 a5 6a 43
       147.66685 73.34419 14.7475605 234.64749
000010 64 bc 0c 42 dd b7 66 43 80 20 82 42 9b fe 20 42
       35.183975 230.71822 65.06348 40.24864
000020 96 1d 55 43 18 54 56 43 f7 20 2e 42 b2 f1 c6 42
       213.11557 214.32849 43.532192 99.47206
000030 7e 96 81 42 7f 00 1b 43 f5 e3 0e 43 08 0a b5 42
       64.79393 155.00194 142.89046 90.51959
000040 0d 75 1f 43 11 54 2d 43 5f 01 73 43 0b 83 3f 43
       159.45723 173.32838 243.00536 191.51189
000050 6d b0 31 43 35 43 7a 43 eb 42 1b 43 49 85 4e 42
       177.68916 250.26253 155.2614 51.63016
000060 29 2d 62 43 45 94 60 43 36 5d 4e 43 a4 b1 5e 41
       226.1764 224.57918 206.3641 13.918369
000070 f4 ea 8c 42 e3 d5 58 43 52 a5 8b 41 22 48 31 43
       70.45889 216.8355 17.455723 177.28177
000080 3c fa 95 42 4e e6 04 43 f5 fd b6 41 fa a6 25 43
       74.98874 132.89963 22.874002 165.65225
000090 15 f5 1f 43 d3 a6 cf 42 4e 47 a8 42 36 83 57 43
       159.95735 103.82583 84.13927 215.51254
0000a0 fe 16 56 42 34 ff 54 42 28 1b d2 42 f8 58 14 43
       53.522453 53.24922 105.05304 148.34753
0000b0 7e 35 9f 41 c0 51 15 43 3d 76 09 43 dc 16 d4 42
       19.90112 149.31934 137.46187 106.04465
0000c0 91 5b 3c 43 b4 53 ed 42 0c 9b 6c 43 99 ba 5b 43
       188.35768 118.66348 236.60565 219.7289
0000d0 50 d0 c9 42 7b 20 3b 43 db 39 94 42 57 00 26 42
       100.90686 187.12688 74.113 41.50033
0000e0 ca 79 b3 42 b5 ad 3b 43 2e e1 76 42 20 c2 3a 43
       89.73787 187.67854 61.719902 186.7583
0000f0 54 e4 7c 41 5f 56 f3 41 a0 77 03 43 e1 15 f5 41
       15.805744 30.417173 131.46729 30.635683
000100 4d 44 1d 43 f5 35 9c 41 33 f9 b2 42 6d a7 99 42
       157.2668 19.526346 89.48672 76.827
000110 8e 50 00 43 68 73 1c 43 03 bf 42 43 0c c1 07 41
       128.31467 156.4508 194.74614 8.484631
000120 ee d8 b4 41 a3 27 a1 42 32 10 66 43 2b 6f 0e 43
       22.605923 80.577415 230.06326 142.43425
000130 08 ad d8 42 77 79 04 43 27 68 e1 42 3b 8a 59 43
       108.33795 132.47447 112.70342 217.53996

lsm.beta f4 [80]
000000 00 00 80 3f 00 00 80 3f 00 00 80 3f 00 00 80 3f
       1.0 1.0 1.0 1.0
000010 00 00 80 3f 00 00 80 3f 00 00 80 3f 00 00 80 3f
       1.0 1.0 1.0 1.0
000020 00 00 80 3f 00 00 80 3f 00 00 80 3f 00 00 80 3f
       1.0 1.0 1.0 1.0
000030 00 00 80 3f 00 00 80 3f 00 00 80 3f 00 00 80 3f
       1.0 1.0 1.0 1.0
000040 00 00 80 3f 00 00 80 3f 00 00 80 3f 00 00 80 3f
       1.0 1.0 1.0 1.0
000050 00 00 80 3f 00 00 80 3f 00 00 80 3f 00 00 80 3f
       1.0 1.0 1.0 1.0
000060 00 00 80 3f 00 00 80 3f 00 00 80 3f 00 00 80 3f
       1.0 1.0 1.0 1.0
000070 00 00 80 3f 00 00 80 3f 00 00 80 3f 00 00 80 3f
       1.0 1.0 1.0 1.0
000080 00 00 80 3f 00 00 80 3f 00 00 80 3f 00 00 80 3f
       1.0 1.0 1.0 1.0
000090 00 00 80 3f 00 00 80 3f 00 00 80 3f 00 00 80 3f
       1.0 1.0 1.0 1.0
0000a0 00 00 80 3f 00 00 80 3f 00 00 80 3f 00 00 80 3f
       1.0 1.0 1.0 1.0
0000b0 00 00 80 3f 00 00 80 3f 00 00 80 3f 00 00 80 3f
       1.0 1.0 1.0 1.0
0000c0 00 00 80 3f 00 00 80 3f 00 00 80 3f 00 00 80 3f
       1.0 1.0 1.0 1.0
0000d0 00 00 80 3f 00 00 80 3f 00 00 80 3f 00 00 80 3f
       1.0 1.0 1.0 1.0
0000e0 00 00 80 3f 00 00 80 3f 00 00 80 3f 00 00 80 3f
       1.0 1.0 1.0 1.0
0000f0 00 00 80 3f 00 00 80 3f 00 00 80 3f 00 00 80 3f
       1.0 1.0 1.0 1.0
000100 00 00 80 3f 00 00 80 3f 00 00 80 3f 00 00 80 3f
       1.0 1.0 1.0 1.0
000110 00 00 80 3f 00 00 80 3f 00 00 80 3f 00 00 80 3f
       1.0 1.0 1.0 1.0
000120 00 00 80 3f 00 00 80 3f 00 00 80 3f 00 00 80 3f
       1.0 1.0 1.0 1.0
000130 00 00 80 3f 00 00 80 3f 00 00 80 3f 00 00 80 3f
       1.0 1.0 1.0 1.0

fc2.weight f4 [10, 80]
000000 7a f4 1d 40 4e f8 0a 41 3d 8e 9e 41 4c 15 b6 40
       2.4680467 8.685621 19.819452 5.6900997
000010 e4 ea 40 41 ef f6 98 41 2f e3 bb 40 e0 d3 16 41
       12.057346 19.120573 5.8714824 9.426727
000020 3e f3 2a 41 ce 72 26 41 96 47 bf 40 46 e7 b5 40
       10.684385 10.4030285 5.9774885 5.6844816
000030 11 db 54 41 f8 94 43 40 e0 8a 58 41 f0 cc 2a 40
       13.303483 3.0559673 13.533905 2.6687584
000040 60 b9 47 41 cd 7c 6d 41 1c 0d 1d 41 f8 93 b2 40
       12.482758 14.842969 9.815701 5.5805626
000050 e7 e7 90 41 46 34 40 41 1d ef 81 41 8b da 33 41
       18.113234 12.012762 16.241755 11.240855
000060 ec 1c 13 41 fc 2a 86 41 bd 46 86 41 fe 1d de 40
       9.194561 16.770988 16.78454 6.941161
000070 57 68 78 41 bb b7 96 40 6c 70 3c 41 84 f5 2b 41
       15.525474 4.709928 11.777447 10.74744
000080 e0 70 8b 41 dd 40 07 41 4b db ae 40 e7 59 96 41
       17.430115 8.453336 5.464269 18.793898
000090 50 c3 fc 40 5a 17 9f 41 6c 55 64 41 c7 df 49 40
       7.898842 19.886402 14.270855 3.1542833
0000a0 cf d9 3f 41 f3 d3 aa 40 3b bd 01 41 93 30 37 41
       11.990676 5.3383727 8.108699 11.449359
0000b0 d3 ef 81 41 f7 71 81 41 1b d5 ff 40 6c ab 00 40
       16.242102 16.180647 7.994764 2.0104628
0000c0 2b c5 de 40 12 7f ed 40 91 8e 03 41 ef 6e 5a 41
       6.9615684 7.4217615 8.222306 13.652083
0000d0 34 17 31 41 b4 4b fa 40 16 30 08 40 78 aa 9d 41
       11.068165 7.821741 2.127935 19.708237
0000e0 9d 65 62 41 6c be 9f 41 ae 13 32 41 45 3a 93 41
       14.149808 19.96798 11.129805 18.403452
0000f0 d0 90 3b 41 24 c9 40 41 ac 7d 81 40 fd 23 2f 41
       11.722855 12.049107 4.046591 10.946286
000100 07 4f 9d 40 12 3a 65 41 5e ba 0c 40 74 ef 9f 41
       4.915897 14.326677 2.198875 19.99192
000110 77 62 30 41 7d 19 d1 40 30 c6 42 41 05 79 e9 40
       11.024039 6.5343614 12.173386 7.296023
000120 7e 4e f6 40 8c 48 67 41 e8 06 16 41 21 ec 81 41
       7.6970816 14.455212 9.376686 16.240297
000130 4d 83 50 41 11 94 7b 41 91 f8 31 41 9c 6e e4 40
       13.032056 15.723649 11.123185 7.138502
000140 f2 df 6e 41 c7 2f 81 41 90 5b 49 41 4c 82 39 40
       14.929674 16.148329 12.584854 2.8985777
000150 c7 4a 43 41 f5 bc f2 40 89 5a 96 41 70 44 a8 40
       12.205756 7.585566 18.794207 5.258354
000160 c9 5b 84 41 0b b6 1e 41 d2 16 89 41 54 e1 e7 40
       16.544817 9.919444 17.136143 7.246256
000170 58 1d 55 41 37 cf f1 40 28 ca c6 40 45 fc 15 40
       13.319664 7.556545 6.2121773 2.3435223
000180 62 20 0e 41 46 5f bd 40 f9 3d 91 41 3a 7e 9a 41
       8.882906 5.91788 18.15526 19.311634
000190 9c 82 19 41 e5 ae d7 40 12 48 98 41 07 c9 92 41
       9.594387 6.7400994 19.03519 18.348158
0001a0 12 24 12 41 17 70 d6 40 bc da 04 41 20 c4 2a 41
       9.133806 6.701183 8.303402 10.672882
0001b0 00 2e 60 41 70 bb 32 40 ab ff 66 41 91 df 99 41
       14.01123 2.7926903 14.437419 19.234163
0001c0 9f 87 2a 41 ae 90 8f 41 72 27 35 41 4a 6c 98 41
       10.658111 17.945644 11.32213 19.052876
0001d0 f0 1e 88 41 04 7e 7a 41 22 44 03 41 06 e0 41 41
       17.015106 15.655766 8.204134 12.117193
0001e0 08 46 6e 40 38 ed 03 41 fc 26 90 41 76 cf 9b 41
       3.7230244 8.245415 18.019035 19.4763
0001f0 82 d2 5a 41 03 00 4c 41 4a a4 b0 40 92 82 b4 40
       13.6763935 12.750003 5.520055 5.6409388
000200 ff f2 40 41 88 e9 84 40 1e 7c 83 40 13 a2 5d 41
       12.059325 4.153507 4.108901 13.852069
000210 f3 d7 9e 41 aa c8 34 41 56 f9 6c 41 ed 67 92 41
       19.855444 11.29899 14.810873 18.300745
000220 8b ad a1 40 26 db 34 41 3b f2 68 40 10 c5 50 40
       5.0524344 11.303503 3.6397846 3.2620277
000230 23 32 09 41 ac ab 98 41 d7 64 12 41 fb a0 58 41
       8.57474 19.083824 9.149619 13.539302
000240 80 c0 90 41 b2 60 78 41 d7 e7 bc 40 a8 5e 82 41
       18.093994 15.523607 5.903301 16.296219
000250 c4 5f 92 41 d6 8c 1d 41 29 9e 27 41 6a af 40 41
       18.29676 9.846884 10.476113 12.042826
000260 c9 4d 61 40 5b 12 e7 40 cd bf 53 41 df 58 82 41
       3.5203726 7.2209907 13.234326 16.293394
000270 43 03 5c 41 f9 32 2f 41 db 43 97 40 46 ef 01 41
       13.750796 10.9499445 4.727033 8.120916
000280 0c 4f 8e 41 7f 5c 7e 41 cc bb ec 40 de fb 80 41
       17.788597 15.897582 7.3979244 16.122982
000290 98 c5 4b 41 a4 d3 44 41 c8 92 15 40 47 18 32 41
       12.735741 12.30167 2.3370838 11.130927
0002a0 18 53 15 41 e2 cb 62 41 2f 48 ae 40 de 1f 14 41
       9.332787 14.174776 5.4463115 9.25778
0002b0 2c 6a 30 41 79 0a 52 41 66 9b 6f 40 71 3b 62 41
       11.025921 13.127557 3.7438598 14.139512
0002c0 c3 fb 6c 41 15 20 09 41 38 0d 12 41 69 ee a4 40
       14.811465 8.570333 9.128227 5.154103
0002d0 52 bd f1 40 c3 24 10 41 fa 19 8b 41 c4 37 86 41
       7.5543604 9.008975 17.387684 16.77723
0002e0 b8 b7 11 40 6a fc 97 41 36 48 93 40 48 14 df 40
       2.2768383 18.99825 4.602565 6.9712257
0002f0 9c 9d 1f 41 45 a2 9d 40 62 b1 9b 41 f0 a2 e7 40
       9.975979 4.9260583 19.461613 7.23864
000300 ff fe f5 40 d5 10 33 41 79 bd dc 40 95 b4 25 41
       7.6873775 11.191609 6.898129 10.356587
000310 44 be 8b 41 21 0a 92 41 37 30 40 41 3c 9b 73 40
       17.467903 18.254946 12.011771 3.8063498
000320 45 2f 8e 41 f5 b7 df 40 8f e6 44 41 7f e1 9f 41
       17.77308 6.9912057 12.306289 19.985106
000330 4f 02 39 41 ed 67 96 41 43 1e 1e 41 ca 0c 65 41
       11.563064 18.800745 9.882388 14.315622
000340 78 e2 1a 40 c2 84 8a 40 98 cf 07 41 8d 44 94 40
       2.4200726 4.328706 8.488182 4.633368
000350 9e ef 79 41 d4 fd 87 41 2e 6c d7 40 b6 32 5e 41
       15.621 16.99894 6.7319555 13.887381
000360 17 02 72 41 df 10 61 41 ea 49 3c 41 66 98 1b 41
       15.12551 14.066619 11.768045 9.724707
000370 1b 97 53 41 25 23 8b 40 18 73 4d 41 73 50 29 41
       13.224391 4.34804 12.840599 10.582141
000380 72 93 87 40 a5 e3 82 41 2c 21 5d 41 0e 41 82 40
       4.2367487 16.361155 13.820599 4.0704412
000390 b7 c6 85 41 cc 98 75 41 01 85 09 41 a0 cb 54 41
       16.722029 15.349804 8.594972 13.299713
0003a0 06 f2 41 41 f4 97 7e 41 37 fb 58 41 2b 94 9a 41
       12.121588 15.912098 13.561332 19.322348
0003b0 51 5e 37 41 6b a2 3c 41 7d f7 a5 40 6c 42 fa 40
       11.460526 11.789653 5.186461 7.820608
0003c0 09 b6 6b 41 29 d2 85 41 33 d5 00 41 af be 07 41
       14.731942 16.727617 8.052051 8.484054
0003d0 a4 7e 85 41 0a a3 73 41 65 c2 4d 41 8f 5c 45 41
       16.686836 15.227304 12.85996 12.335097
0003e0 35 af d3 40 61 c0 c4 40 8e 21 20 41 c5 52 1f 41
       6.6151376 6.1484838 10.008192 9.957707
0003f0 6a 77 25 41 1c 36 cc 40 f4 30 1e 41 a8 51 e6 40
       10.341654 6.381605 9.886951 7.197468

fc2.bias f4 [10]
000000 a0 c0 30 3b 2e 3e a0 3d a0 81 57 bb 9c b1 57 3d
       0.0026970282 0.0782436 -0.003288366 0.052659616
000010 d0 f4 33 bd f8 dd 03 3d 00 e1 74 bc 0c 37 86 3d
       -0.043934643 0.032194108 -0.014946222 0.06553468
000020 94 81 6b 3d 34 0b b5 3d
       0.057496622 0.088400275

readout.threshold f4 [10]
000000 65 22 7a 43 65 4c 58 43 02 bb 8b 42 50 74 32 43
       250.13435 216.29842 69.86525 178.45435
000010 b2 0c 7e 43 0a e6 3b 42 59 4d cb 41 c6 fd 0e 43
       254.04959 46.974648 25.412767 142.9913
000020 46 da 64 42 99 61 26 43
       57.213158 166.38124

readout.beta f4 [10]
000000 00 00 80 3f 00 00 80 3f 00 00 80 3f 00 00 80 3f
       1.0 1.0 1.0 1.0
000010 00 00 80 3f 00 00 80 3f 00 00 80 3f 00 00 80 3f
       1.0 1.0 1.0 1.0
000020 00 00 80 3f 00 00 80 3f
       1.0 1.0
